molecularTransformer.pth (torch, 235371 bytes, 111 tensors)

encoder.FeedForwardNN.0.weight f4 [32, 5]
0	0x3e20989e	0.15683219
1	0x3e8965e0	0.26835537
2	0xbdf58b02	-0.11989404
3	0xbe950ffa	-0.29113752
4	0x3e1a0012	0.1503909
5	0xbeb834f2	-0.35977894
6	0x3cd435b1	0.025904508
7	0x3e420b3c	0.18949598
8	0xbea5323a	-0.32264882
9	0x3e2e01de	0.169929
10	0xbb8ad818	-0.004237186
11	0x3ea20d2a	0.31650668
12	0x3cb31b10	0.02186349
13	0xbd43e616	-0.04782685
14	0x3e2d9f62	0.16955331
15	0xbe020ec4	-0.12700945
16	0x3e4b2e9a	0.19841996
17	0x3ed450da	0.41467935
18	0xbd8f926b	-0.07010349
19	0x3ea90ef5	0.33019224
20	0xbea72fac	-0.32653558
21	0xbb75a894	-0.0037484514
22	0x3c93045b	0.017946413
23	0xbed76692	-0.42070442
24	0xbe1db507	-0.15401088
25	0xbd7008f6	-0.058602296
26	0xbe965194	-0.29359114
27	0xbe78c31f	-0.24293183
28	0xbc46cc28	-0.012133636
29	0xbeac5407	-0.33657858
30	0x3ed28c73	0.4112278
31	0x3ebdccc3	0.37070283
32	0xbee05dcc	-0.4382156
33	0x3e79bda9	0.24388756
34	0x3dd62027	0.10455351
35	0x3ef68b01	0.48152927
36	0x3e30ef55	0.17278798
37	0xbebf0337	-0.3730714
38	0x3e3218bc	0.17392248
39	0xbca904c5	-0.020632157
40	0x3e73bd48	0.23802674
41	0xbe9445e0	-0.2895956
42	0x3e6d2c90	0.2316153
43	0x3e73acd2	0.23796394
44	0xbc36c0d0	-0.0111543685
45	0x3cccfe83	0.025023704
46	0xbe71d9fe	-0.23618314
47	0x3eabef2a	0.33580905
48	0xbec4ba15	-0.3842322
49	0xbd86f6fd	-0.06590078
50	0x3e39f621	0.18160297
51	0xbd22ede2	-0.039777644
52	0x3e293a97	0.16526257
53	0x3d9ec8d6	0.0775315
54	0x3e35416a	0.17700735
55	0xbeaa0547	-0.3320715
56	0xbe51e515	-0.20497544
57	0xbd9b5a94	-0.07585636
58	0x3eb2918f	0.34876677
59	0x3e5a84f5	0.21339782
60	0xbec6e4cf	-0.38846442
61	0xbe8b2558	-0.2717693
62	0xbe984603	-0.29740915
63	0x3e413d98	0.18871152
64	0x3e4469b0	0.19180942
65	0xbdca8968	-0.098894894
66	0xbe371f3c	-0.17883009
67	0xbcb6ccc4	-0.022314437
68	0x3e131460	0.14363241
69	0xbe9959e8	-0.29951406
70	0x3e4fcf98	0.20294034
71	0x3e72b1f5	0.23700698
72	0xbe6e36bf	-0.23263071
73	0x3e638eec	0.22222489
74	0xbb7b0e30	-0.0038308017
75	0xbe47088e	-0.19436857
76	0x3e9084da	0.28226358
77	0x3d9ab20f	0.07553493
78	0xbe844005	-0.25830093
79	0x3e2f96e1	0.171474
80	0x3ec06b22	0.37581736
81	0xbefade67	-0.48997805
82	0x3d6d0e38	0.05787489
83	0xbeb0471b	-0.3442925
84	0x3d21baea	0.039484896
85	0xbec52980	-0.38508224
86	0xbee57eac	-0.44823205
87	0xbdd65770	-0.10465896
88	0xbe65b40f	-0.22431968
89	0x3e721bfb	0.23643486
90	0xbeb8d25d	-0.36097994
91	0x3ebb74d1	0.3661256
92	0xbdbb7ba9	-0.09154446
93	0xbea8e62d	-0.3298811
94	0xbe8623da	-0.26199228
95	0xbe8ed687	-0.27898046
96	0xbd7f6a20	-0.062357068
97	0xbe5e013d	-0.2168016
98	0x3d109be2	0.03530491
99	0xbee47e6c	-0.44627702
100	0xbe7225f0	-0.23647285
101	0x3e289988	0.16464818
102	0x3e92975f	0.28631112
103	0xbea1dca1	-0.3161364
104	0x3eb2a15d	0.34888735
105	0xbd5f00a9	-0.05444399
106	0x3e4a83cc	0.19776839
107	0xbea44c13	-0.3208929
108	0xbe8d1fd6	-0.2756335
109	0xbe8c9612	-0.27458245
110	0xbe6acaf0	-0.22928977
111	0x3eb9e0a3	0.36304197
112	0xbeb283e4	-0.3486625
113	0xbe6c8735	-0.23098452
114	0x3ea0ca23	0.31404218
115	0x3ed279de	0.41108602
116	0xbeb93ba7	-0.36178324
117	0x3e872ca9	0.2640126
118	0x3c98a500	0.018633366
119	0xbe3e5074	-0.18585378
120	0x3e9a25cf	0.3010697
121	0x3ec18ba8	0.37801862
122	0x3d3522c1	0.044222597
123	0xbe8fbe25	-0.28074756
124	0xbe88464f	-0.2661614
125	0xbe65035e	-0.22364566
126	0x3df7056f	0.12061583
127	0xbec48be4	-0.38387978
128	0x3e64c152	0.22339371
129	0xbdcb3934	-0.0992302
130	0xbd4bb3f7	-0.049732175
131	0x3e394fcc	0.18096846
132	0xbe2fa50e	-0.17152807
133	0x3ea36621	0.31913856
134	0x3dfaea95	0.12251774
135	0x3ca0d7db	0.019634178
136	0xbe8771d0	-0.2645402
137	0x3ddd5e53	0.108090065
138	0x3e33a3d1	0.1754296
139	0xbe9285c8	-0.28617692
140	0xbcacdfe6	-0.021102857
141	0x3edb3d6c	0.428203
142	0x3e8227ac	0.25420892
143	0xbc03ef7c	-0.008052703
144	0x3d8a2458	0.06745213
145	0x3e279537	0.16365515
146	0xba0f720b	-0.0005472011
147	0xbe585a1d	-0.21128125
148	0x3e6ef252	0.23334625
149	0x3e765bc5	0.24058445
150	0x3ea8ea4a	0.32991248
151	0x3d11808b	0.03552298
152	0xbefb951b	-0.49137196
153	0x3e9fde25	0.3122417
154	0x3eafc65d	0.34331027
155	0xbd9d65ca	-0.0768543
156	0x3e9201ad	0.28516904
157	0xbdc4fd08	-0.096185744
158	0xbebe741a	-0.37197953
159	0x3e981ede	0.2971105

encoder.FeedForwardNN.0.bias f4 [32]
0	0xbe8e70fe	-0.2782058
1	0xbecd5230	-0.40101767
2	0xbe98e0fd	-0.29859152
3	0x3e361d03	0.17784505
4	0x3e476f0e	0.19475958
5	0x3ec76712	0.38945824
6	0xbd90f6cb	-0.07078322
7	0xbe52d894	-0.2059043
8	0x3ecba8a5	0.39777103
9	0x3ea3e09b	0.32007298
10	0x3da243e8	0.07923108
11	0x3eb8b208	0.36073327
12	0xbd9b2fcd	-0.07577477
13	0x3e9e70a1	0.30945304
14	0xbeb93714	-0.36174834
15	0xbdf7c453	-0.12097993
16	0x3eacf877	0.33783314
17	0x3edd5111	0.4322591
18	0xbe9bcb11	-0.30428365
19	0xbe5358a4	-0.20639282
20	0x3e3e4624	0.18581444
21	0x3eb97089	0.3621867
22	0x3e0d19b5	0.13779338
23	0x3e4f8c66	0.20268402
24	0xbe93a421	-0.28836158
25	0xbea9857b	-0.3310965
26	0x3e00e2f2	0.12586573
27	0xbe13d38e	-0.1443617
28	0x3eaeb172	0.34119755
29	0xbe6a47a1	-0.22878887
30	0x3e3d0a79	0.18461026
31	0x3d6c8815	0.057746965

encoder.FeedForwardNN.2.weight f4 [32, 32]
0	0xbcd2b70b	-0.025722047
1	0xbd19e82c	-0.037574932
2	0x3ceb1c63	0.02870006
3	0x3e3c4730	0.18386531
4	0xbdca1194	-0.09866634
5	0x3dd945a7	0.10608988
6	0xbc170597	-0.009217641
7	0xbdd133b2	-0.10214938
8	0x3dec0b0c	0.115255445
9	0x3d86db44	0.0658479
10	0xbe063ca2	-0.13109067
11	0x3d80a47b	0.06281372
12	0x3d7469f2	0.05967135
13	0x3e05a4ab	0.13051097
14	0x3dcae281	0.099064834
15	0x3dfb06ea	0.12257178
16	0x3d3a9edd	0.04556166
17	0xbe243353	-0.16035204
18	0x3df8839b	0.12134477
19	0xbd310f57	-0.04322752
20	0xbde3e5b5	-0.111277975
21	0x3de2f3d3	0.11081662
22	0xbda1691c	-0.07881376
23	0xbc7dd9c0	-0.01549381
24	0x3d5d0f0a	0.05396942
25	0x3da2b8d8	0.079454124
26	0xbcc47d73	-0.0239856
27	0xbda10cf4	-0.07863799
28	0xbd56a8d2	-0.052407093
29	0x3d2a4dcf	0.04157811
30	0xbc068445	-0.008210246
31	0xbde1109c	-0.10989496
32	0xbda10486	-0.07862191
33	0xbe2808f9	-0.16409673
34	0xbc5c2ee6	-0.013438916
35	0x3e01839b	0.1264786
36	0x3df6b16e	0.12045561
37	0x3caac79f	0.02084714
38	0x3b242e89	0.0025052151
39	0x3e1994fe	0.14998242
40	0xbdef4555	-0.11683146
41	0x3e4093df	0.18806408
42	0x3e3f1f1a	0.18664208
43	0x3c323b61	0.010878415
44	0x3e5a1e9c	0.21300739
45	0x3e1b7503	0.15181355
46	0xbe047552	-0.12935379
47	0xbbd26823	-0.0064211055
48	0x3bc08e70	0.005876355
49	0x3b4b70db	0.003104261
50	0x3da9aa8d	0.08284483
51	0x3b8f2e05	0.0043694996
52	0xba19d3d2	-0.00058680505
53	0x3d831bc1	0.06401778
54	0x3bf9f57f	0.0076281424
55	0xbd623eb0	-0.055235565
56	0x3d597bc2	0.05309654
57	0x3e331223	0.17487387
58	0xbdddc3cb	-0.1082836
59	0x3e0c66af	0.13711046
60	0x3e2d6956	0.16934714
61	0x3e10e559	0.14149989
62	0x3d80cea3	0.06289413
63	0x3e06e8ef	0.13174795
64	0x3d406ad2	0.04697687
65	0x3ddf33d9	0.10898561
66	0x3d886eb0	0.06661737
67	0x3e43e603	0.19130711
68	0x3c86e0e1	0.016464652
69	0x3e2aff94	0.16699058
70	0x3cc12f04	0.02358199
71	0x3d12610c	0.035737082
72	0x3db86a5f	0.09004664
73	0xbdfeb729	-0.12437279
74	0x3ca87ed1	0.020568283
75	0x3de9eff1	0.11422718
76	0x3dbd8813	0.0925447
77	0x3d3ea874	0.04654737
78	0x3d1c842b	0.038211983
79	0xbda0d152	-0.07852425
80	0xbe2b1fd9	-0.16711368
81	0x3b7a5948	0.0038200188
82	0x3b98cb02	0.0046628723
83	0x3a973cec	0.0011538542
84	0x3e25cf95	0.16192468
85	0xbd73ae90	-0.059492648
86	0x3d99a59b	0.0750229
87	0xbdc4c4d1	-0.09607852
88	0x3d04ec56	0.03245195
89	0xbb50028e	-0.0031739804
90	0xbbd1ede1	-0.006406531
91	0xbb9b68a6	-0.0047426997
92	0x3df219cb	0.11821326
93	0xbd2d0414	-0.042240217
94	0x3d053751	0.032523457
95	0x3d61d644	0.05513598
96	0x3ddd5ec4	0.10809091
97	0xbdc7b1ce	-0.097507104
98	0x3e189602	0.14900973
99	0xbe1a9bef	-0.15098546
100	0xbe1d8b15	-0.15385087
101	0xbc9dc376	-0.019258242
102	0x3de37f17	0.11108225
103	0x3cf978f6	0.030453186
104	0xbc4f643c	-0.012658175
105	0xbd7fb691	-0.06242997
106	0x3d9dd116	0.077058956
107	0x3b24ab10	0.0025126375
108	0x3cc06f37	0.023490531
109	0x3df6ff3a	0.12060399
110	0xbdc020b7	-0.0938124
111	0x3d53188d	0.051537085
112	0xbdfe2af2	-0.12410535
113	0xbcd0d99a	-0.025494386
114	0x3daf07cc	0.08546409
115	0xbdd8f6dd	-0.105939604
116	0x3df014d0	0.1172272
117	0xbe2b0c32	-0.16703871
118	0x3e41bb50	0.1891911
119	0xbe490d41	-0.19633962
120	0xbdebb748	-0.115095675
121	0x3d955451	0.07291473
122	0xbe205191	-0.15656115
123	0x3d7c1567	0.06154385
124	0x3dbd046f	0.09229361
125	0xbe387c21	-0.18016101
126	0x3d3763cf	0.04477292
127	0xbd5880dd	-0.05285727
128	0xbe2c9e12	-0.16857174
129	0xbde2304b	-0.110443674
130	0x3c881d9f	0.016615687
131	0xbcbb8ed2	-0.02289525
132	0x3da8610f	0.082216375
133	0x3c08da7b	0.008352871
134	0x3ca8bb16	0.020597022
135	0x3db53b68	0.088492215
136	0xbdf568bd	-0.11982868
137	0xbe073e5c	-0.13207382
138	0x3e01f760	0.12692022
139	0xbbb73e43	-0.005592139
140	0xbd6eac85	-0.058269996
141	0xbccad9be	-0.02476203
142	0x3cc67a71	0.024228306
143	0x3df10ede	0.11770414
144	0x3e0671a2	0.13129285
145	0xbb359f91	-0.0027713517
146	0x3d509f81	0.050933365
147	0xbd084c75	-0.03327604
148	0xbcc5f493	-0.024164474
149	0x3e3afd49	0.18260683
150	0x3e44d7c5	0.19222935
151	0x3e1fdb68	0.1561104
152	0x3d8dd869	0.069260426
153	0xbcaf46f1	-0.021396132
154	0x3e40d527	0.18831311
155	0x3d48d703	0.049033176
156	0x3d71f496	0.059071146
157	0xbddd312d	-0.10800395
158	0x3e2801b3	0.16406898
159	0x3d7662d2	0.060152836
160	0xbd3ef3ed	-0.046619345
161	0x3dff9684	0.124798805
162	0xbe222842	-0.1583567
163	0x3d0dacb3	0.034588527
164	0xbe2dc3d0	-0.16969228
165	0x3e112740	0.14175129
166	0xbc88129c	-0.016610436
167	0xbd97f060	-0.07418895
168	0xbdebb5a6	-0.11509256
169	0x3e12b2ad	0.14325972
170	0xbe19cd83	-0.15019803
171	0xbdd8d240	-0.10586977
172	0x3d89b8ad	0.06724677
173	0xbd6f4891	-0.058418814
174	0x3bcb8733	0.0062111854
175	0x3d0dc069	0.034607325
176	0x3dae5cfa	0.085138276
177	0x3e0b55c9	0.13606943
178	0x3cb1bdea	0.021697003
179	0xbd44cb50	-0.048045456
180	0xbc827d93	-0.01592902
181	0xbe0781b5	-0.13233073
182	0xbe0c163a	-0.13680354
183	0xbd9c7e31	-0.076412566
184	0xbdfd4b38	-0.123678625
185	0xbc545e03	-0.012961867
186	0xbd7b10c7	-0.061295297
187	0x3d405f80	0.046966076
188	0x3de73b47	0.11290603
189	0x3dd69b60	0.10478854
190	0x3e10992b	0.14120929
191	0xbc4b1255	-0.012394507
192	0x3e2c330b	0.16816346
193	0x3b366c7c	0.0027835658
194	0xbde30b70	-0.11086166
195	0x3ccd7fcc	0.025085352
196	0x3e0388cd	0.12845154
197	0x3ddc0ff0	0.10745227
198	0x3d0b6b0d	0.03403764
199	0x3e00e8a1	0.12588741
200	0xbe141eaa	-0.14464822
201	0x3c31220b	0.010811339
202	0xbdda3fb1	-0.106566794
203	0xbdfe0369	-0.12402994
204	0xbe0477e6	-0.12936363
205	0x3e06bbf6	0.13157639
206	0x3d3ea527	0.04654422
207	0xbd77e9fe	-0.060525887
208	0x3d32659d	0.043553937
209	0x3defb136	0.11703722
210	0x3d5bc501	0.053654674
211	0x3a9e4bd5	0.0012077043
212	0xbdc23900	-0.09483528
213	0x3e23a8a2	0.15982297
214	0x3dc978ad	0.0983747
215	0x3e0a8aa7	0.13529454
216	0x3d98e34e	0.0746523
217	0x3e23b39e	0.15986487
218	0xbd7ee761	-0.06223238
219	0xbd1e6b1d	-0.03867637
220	0xbe10d561	-0.14143898
221	0x3e1d9c56	0.15391669
222	0x3dfd646e	0.12372671
223	0xbd29737c	-0.0413699
224	0xbd66822c	-0.056276485
225	0x3cfc62a0	0.030808747
226	0x3e138eb8	0.14409912
227	0x3bd4ca92	0.006493875
228	0xbbca82df	-0.006180152
229	0x3d99e843	0.075150035
230	0x3d82d2e6	0.06387882
231	0xbde0c0db	-0.10974284
232	0xbe1921af	-0.14954256
233	0x3e2da00a	0.16955581
234	0xbd182f9f	-0.03715479
235	0x3e0bbd5f	0.13646458
236	0xbd851b54	-0.06499353
237	0x3e0c27e5	0.13687094
238	0x3bf2a772	0.007405215
239	0x3e129ecc	0.14318389
240	0x3cd84787	0.026401294
241	0xbde42654	-0.11140123
242	0x3d8eebfe	0.06978606
243	0x3df85504	0.121255904
244	0xbdf64aa9	-0.12025959
245	0xbc85ad28	-0.016317919
246	0xbcccb4f7	-0.024988635
247	0xbdf4ac32	-0.11946906
248	0xbd401531	-0.04689521
249	0xbe01fda2	-0.1269441
250	0x3d837f30	0.064207435
251	0xbd681b76	-0.056666814
252	0x3e40aea5	0.18816622
253	0x3e2f2b2c	0.17106313
254	0xbc2c28dc	-0.0105077885
255	0xbd563721	-0.05229867

encoder.FeedForwardNN.2.bias f4 [32]
0	0xbe0f0f51	-0.13970686
1	0x3c8b1773	0.016978955
2	0xbd35fa17	-0.044427957
3	0x3d8151c1	0.063144214
4	0x3d868579	0.06568427
5	0xbe027dae	-0.12743255
6	0xbb9a16d9	-0.0047024307
7	0xbdb63077	-0.08895963
8	0xbc12ea28	-0.00896696
9	0xbd452dd7	-0.04813942
10	0x3d770636	0.060308658
11	0xbe43fc30	-0.1913917
12	0xbdc00c7b	-0.093773805
13	0x3d18edc5	0.03733613
14	0x3e060ab4	0.1309002
15	0xbe3df5f8	-0.18550861
16	0x3d02a7cc	0.031898305
17	0x3beef79f	0.0072927023
18	0xbdc7af15	-0.09750191
19	0x3d904406	0.070442244
20	0x3c2a3e16	0.010390779
21	0x3db2e197	0.08734434
22	0x3cd71030	0.026252836
23	0xbdb26261	-0.087101705
24	0x3e15e500	0.14638138
25	0x3ddceef3	0.107877634
26	0xbe0ddff1	-0.13854958
27	0xbd9b77d3	-0.07591214
28	0xbdb6ce51	-0.089260705
29	0x3e25bb8d	0.16184826
30	0xbdf5c29c	-0.120000094
31	0xbd0b9c22	-0.034084447

decoder.embedding.weight f4 [65, 32]
0	0x3f8b390d	1.0876786
1	0xbe15f190	-0.1464293
2	0x3f8d4b88	1.1038675
3	0x3f6d3485	0.92658263
4	0x3e6a1bc6	0.22862157
5	0x3f5706fa	0.8399502
6	0x3ff32bf1	1.8997785
7	0x3fd86640	1.6906204
8	0xbe534e12	-0.2063525
9	0xbff38a02	-1.9026492
10	0x3ede4b1f	0.43416688
11	0x3f80d6e0	1.0065575
12	0x3dbc56cf	0.09196245
13	0x3e92818c	0.2861446
14	0x3e5f4786	0.21804628
15	0xbe401048	-0.18756211
16	0x3fa6672e	1.3000238
17	0x3ead6d94	0.33872664
18	0x3fb5025c	1.4141345
19	0x3f1f088c	0.62122416
20	0xbf5ee749	-0.87071663
21	0x40090603	2.140992
22	0xbec702a1	-0.38869193
23	0x3e8d5c49	0.2760947
24	0x3f929be3	1.1453823
25	0xbf091d5d	-0.5356043
26	0x3ee58326	0.4482662
27	0x3fb94541	1.447426
28	0xbef296c7	-0.4738066
29	0x3e98dfb9	0.29858187
30	0xbfb4da49	-1.4129115
31	0xbfc300f0	-1.5234661
32	0x3f7914ca	0.97297347
33	0x3f0175ee	0.5057057
34	0xc0185c7c	-2.3806448
35	0x3ff8db46	1.9441917
36	0x3f539409	0.8264776
37	0x3f81b559	1.0133468
38	0x3e41153b	0.18855755
39	0xbf0afa9f	-0.5428867
40	0xbf2b6ce6	-0.6696304
41	0xbff4fb1f	-1.9139136
42	0x3f3b0392	0.7305232
43	0xbf0921b4	-0.5356705
44	0xbfe14885	-1.7600256
45	0x3dc05d26	0.09392767
46	0xbfcfd18b	-1.6235822
47	0x3d110ae8	0.03541079
48	0xbdc97837	-0.09837382
49	0xbeb60bdf	-0.35555932
50	0xbfac0f11	-1.3442098
51	0xbf9737cc	-1.1813903
52	0xbf82d6b2	-1.022177
53	0x3d584d03	0.05280782
54	0x3f42fe86	0.7616962
55	0xbfb81bb9	-1.438346
56	0xbf6dd063	-0.928961
57	0x3f3b94a5	0.7327369
58	0xbf40af62	-0.7526761
59	0x3f185eb7	0.59519523
60	0xbe99b90a	-0.30023986
61	0x3f7e19aa	0.9925791
62	0x3edf8e39	0.43663195
63	0x400cb7e3	2.1987236
64	0xbeed7ec8	-0.4638579
65	0x3e10cdfa	0.14141074
66	0xbf49f5f1	-0.788909
67	0xbf216018	-0.6303725
68	0x3fe10473	1.7579483
69	0xbf87ecbb	-1.061912
70	0xbf339e5b	-0.70163506
71	0x3fc783e0	1.558712
72	0xbfe9f3fc	-1.8277583
73	0x3edbab3a	0.42904073
74	0xbf16c3c4	-0.58892465
75	0x3fa2fbd4	1.2733102
76	0x3cd19416	0.025583308
77	0x3f8705b7	1.0548619
78	0xbe4e2608	-0.20131695
79	0x3ea1ef56	0.3162791
80	0xbe10de67	-0.1414734
81	0xbf978cc6	-1.1839836
82	0xbd20fce6	-0.039303683
83	0xbfc0df7d	-1.5068203
84	0xbf84263b	-1.0324167
85	0x3f0e954b	0.55696553
86	0xbfb5fa3a	-1.4216988
87	0xbf6d48fe	-0.926895
88	0xbdca5fe1	-0.09881569
89	0xbeaf2baf	-0.34213015
90	0xbf77c9dd	-0.96792394
91	0xbefe1644	-0.49626362
92	0xbf094657	-0.53622955
93	0x3f0b73a1	0.5447331
94	0xbf5a6e98	-0.85325
95	0x401ad439	2.419203
96	0xbcfabe65	-0.030608365
97	0x3fa2c43f	1.271614
98	0xbf5fe898	-0.87464285
99	0x3e8532f6	0.26015443
100	0x400f6cbb	2.2410114
101	0x3f98e4da	1.194484
102	0x3ea961bb	0.33082375
103	0xbf786b5c	-0.9703882
104	0x3d413dab	0.04717795
105	0x3e50f08d	0.20404263
106	0xbe81454e	-0.25248188
107	0xbe3f56ed	-0.18685503
108	0x3fc37419	1.5269805
109	0x3fa1df1d	1.2646214
110	0x3d2a7e70	0.041624486
111	0x3ea20bea	0.31649715
112	0xbdf4c722	-0.11952044
113	0xbe26ed45	-0.16301449
114	0xbf915e7e	-1.1356962
115	0x3f98b104	1.1929021
116	0xbf3c34e8	-0.7351823
117	0xc03b0c05	-2.9226086
118	0x3f4e043b	0.80475205
119	0x3e202462	0.15638879
120	0xbecfe154	-0.406016
121	0x3f216b3e	0.63054264
122	0x3f55538b	0.833306
123	0x3f3014d5	0.6878179
124	0xbfc1a3af	-1.5128077
125	0xbf0b8491	-0.54499155
126	0x3eb8b565	0.36075893
127	0x3dda395e	0.10655473
128	0xbef8c7af	-0.48589846
129	0xc0125c90	-2.2868996
130	0x3f13bbe6	0.57708585
131	0x3f6e1c78	0.9301219
132	0x3f2c5dd4	0.6733067
133	0xbf0432a3	-0.51639766
134	0x3f23ad40	0.63936234
135	0xbfe91058	-1.8208113
136	0x4046914f	3.102619
137	0x3e062046	0.13098249
138	0xbf79bd66	-0.97554624
139	0x3f63be10	0.8896189
140	0x3fa9b197	1.3257321
141	0x3d8246aa	0.06361134
142	0xbfaa39bd	-1.329887
143	0xbf28e1c3	-0.65969485
144	0xbfcd039e	-1.6016729
145	0x3ee45ff7	0.44604465
146	0x3e65b639	0.22432794
147	0xbf86eaaa	-1.0540364
148	0x3fba9ba8	1.4578753
149	0xbf5d7fe4	-0.8652327
150	0x3fd31c76	1.649306
151	0xbf4b4dba	-0.79415476
152	0xbed78c5c	-0.42099273
153	0xbf92148a	-1.1412518
154	0x3f193af6	0.5985559
155	0xbf1a5d0e	-0.6029824
156	0xc00e8410	-2.2268105
157	0x3fa78a27	1.3089036
158	0x3dcbde43	0.099545024
159	0xbfa23da6	-1.2675064
160	0xbf207799	-0.6268249
161	0xbfa39c34	-1.2782044
162	0xbf0b49d9	-0.5440956
163	0x3eb9f54c	0.3631996
164	0xbfd45927	-1.6589707
165	0x401492f5	2.3214695
166	0x400fecaf	2.248821
167	0xbf2f48c5	-0.6847041
168	0xbf28f768	-0.6600251
169	0xbe8dd6c4	-0.27702916
170	0x3f27dccb	0.6557128
171	0xbf4f5bfb	-0.80999726
172	0x3f5368c8	0.8258176
173	0x3fd2578b	1.6432966
174	0x40186628	2.3812351
175	0x3de192df	0.110143416
176	0x3f14347e	0.57892597
177	0xc00231f4	-2.034299
178	0xbe9ed2f8	-0.3102033
179	0x3f2d4ae8	0.6769242
180	0x3f081b2c	0.5316646
181	0x3f924b9b	1.1429323
182	0xc032ddcc	-2.7947874
183	0x3fa6d9d2	1.3035223
184	0xbfd1e9cb	-1.6399473
185	0x3fc8b70f	1.5680865
186	0x3e814c18	0.25253367
187	0x3f5282d1	0.8223086
188	0x3c709044	0.014682833
189	0xbf266030	-0.6499052
190	0xbfecd376	-1.8502033
191	0xbf8f2e05	-1.1185919
192	0x40049d1e	2.0720897
193	0xbf79ae02	-0.9753114
194	0xbf2ee267	-0.6831421
195	0x3f3a6ab0	0.7281904
196	0xbd1caace	-0.03824883
197	0xbff217fa	-1.8913567
198	0x3fc156ee	1.5104654
199	0xbc9371d9	-0.017998623
200	0xbaeb3b89	-0.001794682
201	0x3fe9936c	1.8248115
202	0xbfc375d9	-1.5270339
203	0x3d0078f9	0.03136537
204	0x3e3c7917	0.18405567
205	0x3f162c86	0.5866169
206	0xbf40cb3c	-0.7531011
207	0x3e45171c	0.19247097
208	0xbfa06008	-1.2529306
209	0xbf8f2401	-1.1182863
210	0x3ed99ab5	0.42500845
211	0x3f9f4c76	1.2445209
212	0x3f2cf8f3	0.67567366
213	0x3e1e74b5	0.15474208
214	0x3f58128b	0.84403294
215	0x3f88a64b	1.0675749
216	0xbf516734	-0.817981
217	0x3e2e324c	0.17011374
218	0xbfb44761	-1.4084283
219	0x401d995c	2.4624853
220	0x3e1cceb9	0.15313233
221	0xbfaffb8b	-1.374864
222	0xbf37346d	-0.7156437
223	0xbf110584	-0.5664904
224	0x3f7452e4	0.9543898
225	0xbf9327d8	-1.1496534
226	0xc0186122	-2.3809285
227	0xbf4e2e29	-0.80539185
228	0xbe3f9250	-0.18708158
229	0x3ec463c4	0.38357365
230	0xbe96e7e5	-0.29473796
231	0xbfd72086	-1.68068
232	0x3f0556b9	0.52085453
233	0x3f40061a	0.7500931
234	0x3dcb22ed	0.09918771
235	0x4018d9e1	2.3882983
236	0xbfae7c05	-1.3631598
237	0x3e2effb5	0.17089732
238	0xbe38bd64	-0.18040997
239	0xbc8626e2	-0.016375963
240	0x3e7ee047	0.24890243
241	0x3d4a7063	0.049423587
242	0x3ebe2203	0.37135324
243	0xbf7c6416	-0.9859022
244	0x3d3e2f51	0.046431843
245	0x3fbd3b78	1.4783773
246	0xbf225719	-0.6341415
247	0x3e92a0ce	0.2863831
248	0xbf90c9ff	-1.1311644
249	0x3ed1bcfb	0.40964493
250	0xbe694199	-0.2277893
251	0xbfba5f50	-1.4560337
252	0x3f7b65bd	0.98202115
253	0xbeec4b45	-0.46151176
254	0xc0015540	-2.0208282
255	0xbf2bd661	-0.6712399

decoder.dec_layers.0.MultiHAttention1.Wq.weight f4 [32, 32]
0	0x3debe903	0.11519053
1	0x3dbb6166	0.09149437
2	0x3d998ee5	0.07497958
3	0x3daa3c33	0.08312263
4	0xbddcd596	-0.10782926
5	0x3daca41f	0.08429741
6	0x3df38c2b	0.11891969
7	0x3d6def49	0.05808953
8	0x3d62b717	0.05535039
9	0xbe25b204	-0.16181189
10	0x3e0de307	0.13856135
11	0x3ce38e98	0.027777955
12	0x3d53557c	0.051595196
13	0x3e26e83c	0.16299528
14	0xbe00448e	-0.12526152
15	0xbdd6ea51	-0.10493911
16	0xbe1e601f	-0.15466355
17	0x3dbfa70e	0.09358035
18	0x3e4f3220	0.20233965
19	0xbe38ef45	-0.18060024
20	0xbdb261b9	-0.08710045
21	0x3e49f183	0.19721036
22	0x3dbde157	0.09271496
23	0x3d97575f	0.073897116
24	0xbe30ee21	-0.17278339
25	0x3dd007ec	0.10157761
26	0xbcadc486	-0.021211874
27	0xbdb21104	-0.08694652
28	0xbce84ddc	-0.028357439
29	0x3db14112	0.08654989
30	0xbde59a65	-0.11211089
31	0xbe3f3e4f	-0.18676113
32	0xbe2d8cda	-0.16948262
33	0x3e351970	0.17685485
34	0x3db3f556	0.087870285
35	0x3e1af536	0.15132603
36	0xbe017f47	-0.12646209
37	0x3dea7a13	0.11449065
38	0x3e112426	0.14173946
39	0x3dc0b59d	0.0940964
40	0x3d7bf47a	0.061512448
41	0x3deed162	0.1166103
42	0x3c45981e	0.012060193
43	0x3d8140c7	0.063111834
44	0xbe0e3e42	-0.13890937
45	0xbe2593c5	-0.16169651
46	0xbd8742b2	-0.06604518
47	0xbdd1e659	-0.102490135
48	0x3e161948	0.14658082
49	0x3cd728e6	0.02626462
50	0xbc1afe91	-0.009460107
51	0xbdd74ccf	-0.10512697
52	0x3c4f6fca	0.01266093
53	0x3b78c0cb	0.003795671
54	0xbd65311c	-0.055955037
55	0x3d8bf12c	0.06833109
56	0xbd544932	-0.051827617
57	0xbde350b6	-0.11099379
58	0x3e3468a2	0.17618039
59	0xbe0b310f	-0.13592933
60	0x3e013677	0.12618433
61	0x3d98c813	0.07460036
62	0x3ba3469f	0.004982784
63	0x3e129000	0.14312744
64	0xbcd3c6c0	-0.025851607
65	0x3e0dc2c8	0.13843834
66	0xbe33438b	-0.17506234
67	0x3e866072	0.26245457
68	0xbde0bcc5	-0.10973505
69	0xbcf660d1	-0.030075463
70	0x3e666e32	0.22502974
71	0x3e2aa4d0	0.16664433
72	0xbd9ab4d3	-0.07554021
73	0x3db6abc3	0.0891948
74	0x3d67c1f5	0.056581456
75	0x3b94e797	0.004544209
76	0x3c83ed0e	0.016104247
77	0x3e2826d5	0.16421063
78	0xbe2b7858	-0.16745126
79	0xbd486e84	-0.04893352
80	0xbde65c4f	-0.11248075
81	0x3dae1834	0.0850071
82	0x3e4a5548	0.19759095
83	0x3e2812e7	0.1641346
84	0xbe3859d2	-0.18003014
85	0xbdc83ab7	-0.09776824
86	0xbda06252	-0.07831253
87	0x3da81331	0.082067855
88	0x3d74947a	0.05971191
89	0xbdb9a7d2	-0.09065212
90	0xbd83852b	-0.06421884
91	0x3c838896	0.01605634
92	0xbcd419f3	-0.02589128
93	0xbbcc2b0e	-0.0062307185
94	0xbd1321ee	-0.03592103
95	0xbda9766b	-0.082745396
96	0x3d29e337	0.041476455
97	0x3b989252	0.0046561146
98	0xbbfdf22e	-0.0077498173
99	0x3dc7a659	0.09748525
100	0xbe42ae75	-0.19011863
101	0xbd839553	-0.06424966
102	0x3e5b7f5a	0.214353
103	0x3e2f21e3	0.1710277
104	0xbe0b0070	-0.13574386
105	0xbd8ba2aa	-0.06818135
106	0x3e347ae2	0.17625001
107	0xbdb57c1d	-0.08861563
108	0x3d9b9c9b	0.075982295
109	0xbd4950f1	-0.049149457
110	0xbe236be0	-0.1595912
111	0xbe20f31c	-0.15717739
112	0x3e1044ef	0.14088796
113	0xbe5435bc	-0.20723623
114	0x3e47ecb9	0.19523896
115	0x3e030b2b	0.12797229
116	0x3ca02a2a	0.019551355
117	0x3b8f7975	0.0043784925
118	0xbe21c255	-0.15796788
119	0x3cd38184	0.025818594
120	0xbe01ff35	-0.1269501
121	0xbe4b89dd	-0.1987681
122	0x3da1cc63	0.07900312
123	0xbddf0964	-0.10890463
124	0x3d93bdf7	0.07213967
125	0x3d9def57	0.07711666
126	0x3e1af887	0.15133868
127	0x3db3330e	0.08749972
128	0x3e283ec7	0.16430198
129	0x3e268620	0.16262102
130	0x3dde54a6	0.10855989
131	0xbde5db27	-0.112234406
132	0xbe168b8e	-0.14701673
133	0x3dd17fd6	0.10229461
134	0x3c97d47e	0.018533941
135	0xbdb1f4cd	-0.0868927
136	0xbdfaa199	-0.122378536
137	0xbdf0d78d	-0.11759863
138	0x3d27e322	0.040988095
139	0x3e11c483	0.1423512
140	0xbe513545	-0.20430477
141	0x3baec324	0.005333321
142	0xbd3109c6	-0.04322221
143	0x3e03eb45	0.12882717
144	0x3d9f4fa8	0.07778865
145	0x3d36792d	0.044549156
146	0xbd908abe	-0.07057713
147	0xbe0b05b9	-0.13576402
148	0xbc210400	-0.009827614
149	0x3e1d7b7b	0.15379135
150	0xbe232ed7	-0.15935837
151	0xbda64393	-0.081183575
152	0xbde79dca	-0.11309393
153	0x3da8243b	0.082100354
154	0x3d42e02a	0.04757706
155	0xbd9547c8	-0.07289082
156	0x3e1eaebe	0.15496346
157	0x3d61ede7	0.055158522
158	0xbd43d585	-0.04781105
159	0x3c82d0e1	0.015968742
160	0x3db09483	0.08622076
161	0xbd3bb10a	-0.045823134
162	0xbd8620df	-0.065492384
163	0xbd58e5d6	-0.052953564
164	0x3c127684	0.008939389
165	0xbdbdec0d	-0.09273539
166	0xbdb3a128	-0.087709725
167	0x3e2d9e3d	0.16954894
168	0x3d5093a5	0.050922055
169	0x3c8e7786	0.017390978
170	0x3cad8bac	0.021184765
171	0xbe210cdf	-0.15727566
172	0x3dcb853e	0.09937523
173	0xbcc43e11	-0.023955377
174	0xbcb7845f	-0.022401987
175	0xbdb5da2b	-0.08879503
176	0x3e05f385	0.13081177
177	0xbe0696c4	-0.1314345
178	0xbe18fdd5	-0.14940579
179	0xbd6df231	-0.0580923
180	0xbde3a81b	-0.11116048
181	0x3cd3777a	0.025813807
182	0x3ca18241	0.01971543
183	0xbe3ca030	-0.18420482
184	0xbd9eca41	-0.077534206
185	0x3b6c8f6a	0.0036096224
186	0x3e36f789	0.17867865
187	0xbca3abc3	-0.019979363
188	0x3cd18842	0.025577668
189	0x3dc54f37	0.0963425
190	0xbbf7294f	-0.007542766
191	0x3d3478bd	0.044060457
192	0xbd6bdc45	-0.057583112
193	0x3e055603	0.13021092
194	0x3c0e884c	0.008699488
195	0xbe249829	-0.1607367
196	0x3da5c0df	0.08093428
197	0xbe2361eb	-0.15955321
198	0x3e154380	0.1457653
199	0x3cbe3c0d	0.023221994
200	0x3dbe7c49	0.09301049
201	0x3d66ab91	0.056315962
202	0x3d4bf8f4	0.049797967
203	0xbce34aa4	-0.027745552
204	0x3de7efb7	0.11325019
205	0x3de59c26	0.112114236
206	0xbd8e1b0a	-0.06938751
207	0x3c5ece98	0.0135990605
208	0xbde77087	-0.1130076
209	0xbe0f3ec9	-0.13988794
210	0x3da3afa2	0.07992484
211	0x3d49a05c	0.049225196
212	0xbdaf1c8b	-0.08550366
213	0x3e2a54ac	0.16633862
214	0xbe6c509c	-0.23077625
215	0x3e2f7058	0.171327
216	0xbde63a1e	-0.11241554
217	0xbde7e1fa	-0.113223985
218	0xbe0e27a4	-0.13882309
219	0xbc7475ed	-0.014920694
220	0xbd895640	-0.06705904
221	0xbd4e91ac	-0.050431892
222	0x3c959648	0.018260136
223	0xbdfd09b7	-0.123553686
224	0xbda24ba2	-0.07924582
225	0xbd911a1b	-0.07085057
226	0xbdb11c36	-0.08647959
227	0x3dcb9c61	0.09941936
228	0xbd7bb120	-0.061448216
229	0xbdf4b347	-0.11948257
230	0x3d5e5cf5	0.05428787
231	0xbde6867a	-0.11256118
232	0x3e461c9a	0.19346848
233	0x3db3bd86	0.08776383
234	0xbda65b1d	-0.08122847
235	0x3d5dda1c	0.054163083
236	0x3e129903	0.14316182
237	0x3da4d657	0.080486946
238	0x3dfcca96	0.12343328
239	0x3e1375f8	0.1440047
240	0xbe259e8e	-0.16173765
241	0xbd995116	-0.07486169
242	0xbe185f8a	-0.14880195
243	0xbe104373	-0.1408823
244	0xbc0f79d0	-0.00875707
245	0xbe418dcf	-0.18901752
246	0x3e41fc93	0.18944006
247	0x3ddcda0d	0.107837774
248	0x3d1e2d37	0.03861734
249	0xbd9838a4	-0.07432678
250	0xbdaeb252	-0.08530106
251	0xbe049cf3	-0.12950496
252	0xbe008893	-0.12552099
253	0xbe2109e6	-0.15726432
254	0xbe21e6cf	-0.15810703
255	0x3d8adcc3	0.06780388

decoder.dec_layers.0.MultiHAttention1.Wq.bias f4 [32]
0	0x3d24766c	0.040152
1	0x3c5058f6	0.012716522
2	0xbda86036	-0.08221476
3	0xbe4abfb3	-0.1979969
4	0xbcae0edf	-0.021247325
5	0xbe0cae83	-0.13738446
6	0xbdc41047	-0.09573417
7	0x3dc79c29	0.09746582
8	0x3d8f2362	0.069891706
9	0x3dcfac7f	0.10140323
10	0xbd7e511b	-0.062089067
11	0x3e1d7bfe	0.1537933
12	0xbdb9c123	-0.09070041
13	0xbdb2998b	-0.08720692
14	0xbd2184ff	-0.039433476
15	0xbb07e397	-0.002073502
16	0xbdffe321	-0.12494493
17	0xbd36f11d	-0.044663537
18	0x3e3945d7	0.18093048
19	0xbe2a3d63	-0.1662498
20	0xbe087db6	-0.13329205
21	0xbdc42ba5	-0.09578637
22	0xbe176b7e	-0.14787099
23	0xbd72e3e6	-0.059299372
24	0x3d6d56f9	0.05794427
25	0x3d5e8b76	0.05433222
26	0x3e1162c8	0.14197838
27	0xbd9a70e9	-0.07541067
28	0xbd814343	-0.06311657
29	0x3d94c0e3	0.07263353
30	0xbd357fc8	-0.044311315
31	0xbe45719e	-0.19281623

decoder.dec_layers.0.MultiHAttention1.Wk.weight f4 [32, 32]
0	0xbda2049e	-0.07911037
1	0x3dad0495	0.084481396
2	0x3df4d054	0.11953798
3	0xbda6c3b6	-0.08142798
4	0x3c380163	0.011230799
5	0xbe3d54d3	-0.18489389
6	0xbe0f3552	-0.13985184
7	0x3cd2eddf	0.025748191
8	0xbde7406c	-0.11291584
9	0x3e01b6f1	0.12667443
10	0xbcc8552e	-0.02445468
11	0x3cd0f496	0.025507253
12	0xbe581dea	-0.21105161
13	0x3df2836e	0.118414745
14	0xbe2df424	-0.16987664
15	0x3e227b22	0.15867284
16	0xbd9f06ae	-0.07764946
17	0x3e13538b	0.14387338
18	0xbd038fc6	-0.032119535
19	0x3df6f903	0.12059214
20	0x3d858b9f	0.06520771
21	0xbe6283ae	-0.22120544
22	0x3e3a7c20	0.18211412
23	0xbd8e9f65	-0.06963996
24	0x3bbfdf2e	0.0058554625
25	0x3e540bb7	0.20707594
26	0x3d84df03	0.064878486
27	0xbe65dd4d	-0.22447701
28	0x3cfef40a	0.031122226
29	0xbe24cbae	-0.16093323
30	0x3d2b3db8	0.041806906
31	0x3e246045	0.16052349
32	0x3deb119d	0.11477969
33	0x3e658cf4	0.2241705
34	0x3dcdb161	0.10043598
35	0x3d8c26f9	0.06843371
36	0xbe0ac96c	-0.13553399
37	0x3ddd4866	0.108048245
38	0x3dd8a45f	0.10578226
39	0x3d75d50d	0.060017634
40	0x3cc556b9	0.024089204
41	0x3dedc927	0.116106324
42	0xbe24d149	-0.16095461
43	0xbe1ac538	-0.15114295
44	0xbe210488	-0.15724385
45	0x3bdd7116	0.0067578657
46	0x3ddb2167	0.1069973
47	0xbd5e62a1	-0.05429328
48	0x3e02c6b1	0.12771107
49	0x3c776aff	0.015101193
50	0xbd93ec66	-0.07222824
51	0xbd27b162	-0.04094065
52	0x3dfa65a6	0.12226419
53	0xbe30eb55	-0.17277272
54	0x3d9d7773	0.07688799
55	0x3d058689	0.032599006
56	0x3d770976	0.060311757
57	0xbd28ecfd	-0.041241635
58	0x3dc2a0e6	0.09503345
59	0xbe48a679	-0.19594754
60	0x3e41ab52	0.1891301
61	0xbda7bdba	-0.08190484
62	0x3c403702	0.011731865
63	0x3d83b304	0.06430629
64	0xbe046ae7	-0.12931405
65	0xbd3cf1a6	-0.04612889
66	0xbe6368b9	-0.22207917
67	0xbc455004	-0.012043003
68	0x3d22ad7f	0.03971624
69	0x3decdcea	0.115655735
70	0x3dd9e7df	0.10639929
71	0xbe5de08d	-0.2166769
72	0x3e35c4c6	0.17750844
73	0x3deec7e6	0.11659221
74	0xbe40300c	-0.18768328
75	0xbdd892ff	-0.10574912
76	0xbd0d9fe8	-0.034576327
77	0x3d432448	0.047642022
78	0xbe0f5516	-0.13997301
79	0xbcd75152	-0.026283894
80	0x3d45cef6	0.048293076
81	0xbdfbd1b1	-0.12295855
82	0xbdaa4bd4	-0.08315244
83	0x3c89a1bc	0.016800754
84	0xbd8ba213	-0.068180226
85	0xbd307c10	-0.043087065
86	0x3d6c15e4	0.057638064
87	0xbe0ef433	-0.13960342
88	0xbe148dc3	-0.14507203
89	0xbd885909	-0.06657607
90	0xbd5418d0	-0.051781476
91	0xbdb84eac	-0.089993805
92	0x3d77766a	0.060415663
93	0xbe1cfdbd	-0.15331168
94	0x3e219b19	0.15781821
95	0x3dc80482	0.09766485
96	0x3c7a5573	0.015279162
97	0xbc67dd75	-0.014151921
98	0x3dd1ff9b	0.10253831
99	0xbe518ab2	-0.20463064
100	0xbd40ab71	-0.0470385
101	0xbe397098	-0.18109357
102	0xba8807b5	-0.0010378273
103	0xbe60f9b7	-0.21970259
104	0x3de4e0e2	0.111757055
105	0x3d82569e	0.06364177
106	0xbe003b84	-0.12522703
107	0xbc17b528	-0.0092595
108	0xbdf2b19c	-0.118502825
109	0xbc3f9b8a	-0.011694798
110	0xbe3a0878	-0.18167293
111	0x3c5e816f	0.013580664
112	0xbdb4d796	-0.08830182
113	0xbe2aff40	-0.16698933
114	0xbd58f170	-0.052964628
115	0xbc068291	-0.00820984
116	0x3e76b419	0.2409214
117	0xbe1ba50e	-0.15199682
118	0x3e06d496	0.13167033
119	0x3dbc5abb	0.09196993
120	0xbd9bfd14	-0.0761663
121	0xbc78c48c	-0.015183579
122	0x3e045bdc	0.12925667
123	0x3dd1432c	0.1021789
124	0x3d0a7bfa	0.03380964
125	0x3d70de73	0.058805894
126	0x3e2e1d52	0.17003372
127	0x3e6bfd2b	0.23045795
128	0xbdcd8ca9	-0.100365944
129	0x3e04bb61	0.12962104
130	0x3e5ad940	0.21371937
131	0x3e78c9b8	0.242957
132	0xbd162da7	-0.03666463
133	0x3cacd9b7	0.021099908
134	0x3e255617	0.16146122
135	0xbdc15474	-0.09439936
136	0xbdb1009b	-0.086426936
137	0x3dc9aa11	0.09846891
138	0x3d84e750	0.06489432
139	0x3c118dab	0.008883874
140	0x3e2a6888	0.16641438
141	0xbc3964ea	-0.011315564
142	0xbae8f394	-0.0017772787
143	0xbb571afe	-0.0032822485
144	0xbd9d593d	-0.076830365
145	0xbe18720e	-0.14887258
146	0xbd72bdb1	-0.059262935
147	0x3d324700	0.043524742
148	0x3aed241e	0.0018092429
149	0x3e1e8c2f	0.15483163
150	0xbda71a03	-0.08159258
151	0x3d8e335e	0.06943391
152	0x3d385aac	0.045008346
153	0x3dda75a9	0.10666973
154	0x3da4e080	0.080506325
155	0xbd976612	-0.07392515
156	0xbd029b42	-0.031886347
157	0xbdc87345	-0.09787611
158	0xbe17dcf4	-0.1483038
159	0xbe0b546a	-0.1360642
160	0x3dcf4795	0.10121075
161	0x3d8ccf98	0.06875533
162	0x3e1833ee	0.1486356
163	0xbda388d3	-0.079850815
164	0xbe30dd96	-0.17272028
165	0xbe339347	-0.1753665
166	0x3d4d371f	0.050101396
167	0xbc2e89f3	-0.010653007
168	0x3dbfc4e0	0.09363723
169	0x3e005fb3	0.12536506
170	0xbd85300a	-0.06503303
171	0xbcc1d49e	-0.023660954
172	0x3dbc6515	0.09198967
173	0xbd678333	-0.056521606
174	0x3e197884	0.1498738
175	0xbdd4c190	-0.103884816
176	0xbd223915	-0.03960522
177	0x3de726b8	0.11286682
178	0xbe2ff53b	-0.17183392
179	0xbe07bb77	-0.13255106
180	0x3de6400b	0.11242684
181	0xbe348301	-0.17628099
182	0xbe102f7f	-0.14080618
183	0xbe03c8a8	-0.12869513
184	0xbd259042	-0.040420778
185	0xbca4d098	-0.020118997
186	0x3da5a1ba	0.080874875
187	0xbc2aee7c	-0.010432836
188	0xbdf99f22	-0.12188555
189	0x3de39ce0	0.11113906
190	0xbd93cef1	-0.07217205
191	0x3de737f4	0.11289969
192	0x3e2d1a2c	0.16904515
193	0x3e0ee268	0.13953555
194	0xbda3d924	-0.08000401
195	0xbdbfa230	-0.09357107
196	0xbc8639b5	-0.016384939
197	0x3a4ad7e0	0.00077378564
198	0x3e43a240	0.19104862
199	0xbd90573f	-0.07047891
200	0x3ce70e72	0.02820513
201	0xbe11e52a	-0.14247575
202	0x3d33e285	0.043917198
203	0x3d61b5d3	0.05510504
204	0xbcfcf368	-0.030877784
205	0xbdd7c9d1	-0.1053654
206	0xbd072d25	-0.033002038
207	0xbd8222a7	-0.06354266
208	0x3e43b2bf	0.19111155
209	0x3d23ebe1	0.040019874
210	0xbdf7f775	-0.121077456
211	0x3c797fa1	0.015228183
212	0x3e07b4d4	0.13252574
213	0x3dc63548	0.09678131
214	0xbbbf9117	-0.0058461535
215	0xbd976620	-0.07392526
216	0xbdc23d54	-0.09484354
217	0x3e144d8c	0.14482707
218	0xbd1c4881	-0.038155083
219	0x3c252a43	0.010080877
220	0xbdab75e7	-0.083720975
221	0x3bcdd9c0	0.0062820613
222	0xbe20912c	-0.15680379
223	0x3d18a435	0.037265975
224	0xbe04e969	-0.12979664
225	0x3c9a3f1f	0.018828927
226	0xbdfa8491	-0.12232316
227	0xbd20a8e2	-0.03922356
228	0x3d4d15eb	0.05006973
229	0x3e0ddc93	0.13853674
230	0x3e0fd4da	0.1404604
231	0xbdef143e	-0.11673783
232	0x3e373c1d	0.17894025
233	0xbd972a99	-0.07381172
234	0xbe0deda3	-0.13860182
235	0xbe1f9b33	-0.15586548
236	0xbe01a399	-0.12660064
237	0xbd630c5b	-0.055431705
238	0xbd07389b	-0.033012968
239	0x3d9174d5	0.07102362
240	0x3c2e9693	0.010656017
241	0xbd9cdaba	-0.07658906
242	0x3b0937fd	0.0020937913
243	0xbde46313	-0.111517094
244	0xbdb08aa6	-0.08620195
245	0xbd20667a	-0.03916023
246	0x3d2325d7	0.03983101
247	0xbd2a0bc0	-0.041515112
248	0xbcd35516	-0.025797408
249	0x3c967487	0.018366111
250	0xbd806170	-0.06268585
251	0xbccefeef	-0.025268046
252	0xbe188e00	-0.14897919
253	0x3dbf98ea	0.09355338
254	0x3d7cc26e	0.06170886
255	0xbda90b4d	-0.082541086

decoder.dec_layers.0.MultiHAttention1.Wk.bias f4 [32]
0	0xbd752aa6	-0.059855126
1	0xbd3b33b8	-0.04570362
2	0xbe2fbf07	-0.17162715
3	0xbd91d63e	-0.071209416
4	0x3e571e08	0.2100755
5	0xbe0eccdc	-0.13945335
6	0xbdefeac0	-0.11714697
7	0xbd3a10e9	-0.045426283
8	0x3c047a89	0.008085855
9	0x3b2d8df1	0.0026482309
10	0xbe132215	-0.1436847
11	0xbe3871e9	-0.18012203
12	0x3d73fece	0.059569173
13	0x3d959868	0.0730446
14	0x3b9bb76d	0.0047520907
15	0x3d81cc6d	0.06337819
16	0xbe0f0f73	-0.13970737
17	0x3d381a3d	0.044946898
18	0xbd2c2e98	-0.042036623
19	0x3dc37cdb	0.09545299
20	0xbd39cf42	-0.045363672
21	0x3ce43015	0.027854959
22	0xbe46448c	-0.19362086
23	0x3c346dc6	0.0110125
24	0x3d4e29f4	0.05033298
25	0x3d6cb3b5	0.05778857
26	0x3e0003c0	0.1250143
27	0xbce376eb	-0.027766665
28	0xbce0c558	-0.02743785
29	0xbb2af683	-0.0026086874
30	0x3c3e1ed6	0.011604032
31	0x3d1ae783	0.037818443

decoder.dec_layers.0.MultiHAttention1.Wv.weight f4 [32, 32]
0	0xbdf36139	-0.11883778
1	0x3d66a513	0.05630977
2	0x3d42b596	0.047536455
3	0x3d1198c8	0.035546094
4	0xbd89f940	-0.06736994
5	0xbd1b7139	-0.037949774
6	0xbc3d8abf	-0.011568724
7	0xbe02afaf	-0.1276233
8	0xbcf6b1f2	-0.030114148
9	0xbdcd320e	-0.10019313
10	0x3d900657	0.07032459
11	0x3d5712bd	0.052508105
12	0xbc961f28	-0.018325403
13	0xbc945c22	-0.018110339
14	0xbdfc6d56	-0.12325542
15	0xbd9a8274	-0.07544413
16	0xbc6dc32c	-0.014511865
17	0x3e1d4afc	0.15360636
18	0x3e341662	0.17586663
19	0xbd61234e	-0.05496531
20	0xbe546a03	-0.20743565
21	0x3cd33232	0.02578077
22	0x3d6b28f7	0.057412114
23	0xbe078412	-0.13233975
24	0xbbea1ad0	-0.0071443096
25	0xbe15347f	-0.14570807
26	0xbca17f0f	-0.019713907
27	0x3e10f114	0.14154464
28	0x3e20d06c	0.15704507
29	0x3db93aa5	0.09044389
30	0xbe07bc43	-0.1325541
31	0xbdd5c770	-0.1043843
32	0xbe015806	-0.12631235
33	0xbcace9a3	-0.0211075
34	0xbca60631	-0.020266624
35	0x3db5d72d	0.08878932
36	0xbde48833	-0.111587904
37	0xbe46c6d1	-0.1941178
38	0x3e3191cf	0.17340778
39	0xbdcb0648	-0.099133074
40	0x3dd46161	0.10370136
41	0xbe19bf71	-0.15014435
42	0x3de4d6ea	0.11173804
43	0x3e1a0b61	0.15043403
44	0xbdee51c5	-0.1163669
45	0x3deeb8ab	0.11656316
46	0xbd9cb5ad	-0.076518394
47	0x3da5d829	0.0809787
48	0x3da440aa	0.08020146
49	0x3b8b2eae	0.004247508
50	0xbe1dee73	-0.15422992
51	0xbd30b224	-0.04313864
52	0xbd5c4e9d	-0.05378591
53	0xbdcdb36a	-0.10043986
54	0x3def2170	0.116762996
55	0x3bd2cddc	0.0064332318
56	0x3e0e6f1f	0.13909577
57	0xbd342f18	-0.043990225
58	0x3e086a6b	0.13321845
59	0x3de3f34d	0.1113039
60	0xbb8e68cc	-0.004345989
61	0xbc2acf12	-0.010425346
62	0xbe32f042	-0.17474464
63	0x3bac730a	0.005262737
64	0x3d250b75	0.04029413
65	0xbbdd120a	-0.006746535
66	0x3e1401b1	0.1445377
67	0xbe238061	-0.15966941
68	0x3da91564	0.08256033
69	0xbd38bec4	-0.045103803
70	0x3e1acc15	0.15116914
71	0xbe05805c	-0.13037246
72	0x3bd1d0ae	0.0064030504
73	0x3e1ba890	0.1520102
74	0xbd6aacb0	-0.057293594
75	0xbd88216d	-0.066470005
76	0x3e03af95	0.12859948
77	0xbddaa799	-0.10676498
78	0x3db4be21	0.08825327
79	0x3e50dd3c	0.20396894
80	0xbd335f35	-0.04379197
81	0x3da2180c	0.07914743
82	0xbd8b43b4	-0.06800023
83	0x3e145972	0.14487246
84	0xbe088c5b	-0.13334791
85	0xbe27b49e	-0.16377494
86	0xbce05576	-0.027384501
87	0x3d8101d4	0.06299177
88	0x3cc4a29e	0.024003323
89	0xbcf63ff4	-0.030059792
90	0x3e26d9da	0.16294041
91	0xbd8c258e	-0.068431005
92	0xbdc9dfd4	-0.09857145
93	0x3c770b8b	0.015078436
94	0xbdf844f8	-0.1212253
95	0x3cf34874	0.029697634
96	0xbe6a3913	-0.22873335
97	0x3e2d2430	0.16908336
98	0xbc86f70e	-0.016475227
99	0xbc90d24a	-0.017678399
100	0xbded1ffc	-0.11578366
101	0x3d51d585	0.05122902
102	0xbe1b00aa	-0.15136972
103	0xbdb05fac	-0.08611998
104	0x3d9a6627	0.07539015
105	0x3e350a51	0.17679717
106	0xbdd8c340	-0.10584116
107	0x3e035925	0.12826975
108	0x3e2147b4	0.15750009
109	0x3d4823ce	0.04886227
110	0x3e477f4b	0.19482152
111	0xbc58b2cc	-0.013226222
112	0xbd82d9ed	-0.06389222
113	0x3d2b6de3	0.041852843
114	0xbe2b5a80	-0.16733742
115	0xbe5012ac	-0.20319623
116	0xbd1d1029	-0.03834549
117	0x3e1ae977	0.15128122
118	0x3e1a2427	0.15052854
119	0x3e037ff6	0.12841782
120	0x3bdd03f2	0.006744855
121	0xbd9a1e71	-0.075253375
122	0xbe3cd4e9	-0.18440594
123	0x3d483e2e	0.048887424
124	0xba724c6d	-0.0009242956
125	0x3d8733db	0.066016875
126	0x3d003975	0.031304795
127	0xbd8c7bfd	-0.068595864
128	0xbe1aeec7	-0.15130149
129	0x3db4c72d	0.08827052
130	0x3c07e1fe	0.008293627
131	0x3e00840b	0.1255037
132	0x3dd3b732	0.10337676
133	0xbcd8a95b	-0.026447942
134	0xbdf4c2a3	-0.119511865
135	0xbe30ea85	-0.17276962
136	0xbe663574	-0.22481328
137	0x3dcbb561	0.09946705
138	0xbe169b74	-0.14707738
139	0x3d1ea2be	0.03872942
140	0xbd007313	-0.031359743
141	0xbd44dfab	-0.04806487
142	0xbd33f60e	-0.043935828
143	0x3d9b7871	0.07591332
144	0x3bb402e4	0.0054935087
145	0xbdd84f3f	-0.1056199
146	0xbd3096e9	-0.04311267
147	0xbde96131	-0.11395491
148	0xbe3f14f9	-0.18660344
149	0xbd4623a1	-0.048373822
150	0x3cb45e06	0.02201749
151	0xbda112f8	-0.07864946
152	0x3dafd620	0.08585763
153	0x3d4bc041	0.049743894
154	0xbb06ef32	-0.002058935
155	0x3d9d128a	0.07669552
156	0x3d4f2ab0	0.05057782
157	0xbd40381f	-0.04692852
158	0x3df344e6	0.11878376
159	0x3d0764bd	0.033055056
160	0xbe482e67	-0.19548951
161	0x3d3cb170	0.046067655
162	0xbe2194d7	-0.15779434
163	0xbe50813e	-0.20361802
164	0x3dbf8d09	0.09353072
165	0x3e29cad1	0.16581275
166	0xbc09346a	-0.008374313
167	0xbdd518d9	-0.1040513
168	0x3d9b0d9e	0.07570957
169	0xbd8bdd5b	-0.068293296
170	0xbcaff425	-0.021478722
171	0x3dcc7bde	0.09984563
172	0x3c42c892	0.01188864
173	0x3e2b6c18	0.16740453
174	0x3b054a0a	0.002033832
175	0x3b8f3407	0.004370216
176	0xbd581ce3	-0.052761924
177	0xbdaf3482	-0.08554937
178	0x3e4fdf77	0.20300089
179	0x3cb99621	0.022654595
180	0xbdb6ae77	-0.08919995
181	0x3db415e8	0.08793241
182	0xbd084068	-0.033264548
183	0x3e3525e1	0.17690231
184	0x3d085f54	0.033294037
185	0x3dae5cb6	0.08513777
186	0xbc210aea	-0.009829262
187	0x3c28f492	0.010312216
188	0x3d2ac8a7	0.041695263
189	0xbe1cb87f	-0.15304755
190	0x3c1db1dc	0.0096249245
191	0xbde3bd16	-0.1112005
192	0xbe05dac5	-0.13071735
193	0xbd3c8d3f	-0.04603314
194	0x3e540de8	0.2070843
195	0x3daefb30	0.08544004
196	0x3e589f6f	0.21154569
197	0xbdee1f34	-0.11627045
198	0xbe5103d1	-0.20411612
199	0xbb2718df	-0.0025497002
200	0x3cc42857	0.023945017
201	0xbc24fdd4	-0.010070283
202	0x3e76c254	0.24097568
203	0xbe334603	-0.17507176
204	0x3e63278c	0.22183055
205	0xbe6d6c17	-0.23185764
206	0xbd9f8440	-0.077888966
207	0x3d1a0489	0.03760198
208	0xbd4c314b	-0.049851697
209	0x3e792d16	0.24333605
210	0xbc863731	-0.01638374
211	0xbdf2edaf	-0.11861741
212	0x3b79191f	0.0038009358
213	0x3dbc7c77	0.09203427
214	0x3d6f699a	0.05845032
215	0xbcda5165	-0.02665014
216	0x3e17f8e7	0.14841042
217	0xbcf7596b	-0.030194005
218	0x3dacc393	0.0843574
219	0xbcbbeef1	-0.022941085
220	0x3e4660a0	0.19372797
221	0x3d5c01a1	0.05371249
222	0xbdf151d6	-0.11783187
223	0xbc126613	-0.008935469
224	0xbe49c026	-0.19702205
225	0x3e2c54f9	0.1682929
226	0x3c488872	0.012239562
227	0xbe21b7c6	-0.1579276
228	0xbde950da	-0.11392374
229	0xbc1aed25	-0.009455954
230	0xbcf70db3	-0.0301579
231	0xbe43be0b	-0.19115464
232	0x3da1cfa7	0.07900935
233	0x3d5852ac	0.052813217
234	0x3d7de720	0.061987996
235	0x3e4fdaf3	0.20298366
236	0xbdb0ebcd	-0.086387254
237	0x3b0cc16d	0.0021477595
238	0x3d14f9dc	0.036371097
239	0x3e55c091	0.2087424
240	0x3aa39a5c	0.0012481916
241	0x3d6de04d	0.058075238
242	0x3de37b66	0.11107521
243	0xbd1d8584	-0.03845741
244	0xbe23eebd	-0.1600904
245	0xbd03209f	-0.03201353
246	0xbd47c475	-0.04877134
247	0x3d9dcbaf	0.07704865
248	0xbe28b523	-0.16475348
249	0xbdfc874d	-0.12330494
250	0xbe49d35f	-0.19709538
251	0xbdd48e32	-0.10378684
252	0xbe2dad90	-0.1696074
253	0xbd24c1e8	-0.040223986
254	0xbd09c527	-0.033635285
255	0xbd051f0a	-0.032500304

decoder.dec_layers.0.MultiHAttention1.Wv.bias f4 [32]
0	0xbe04ec8f	-0.12980865
1	0x3971021a	0.00022984334
2	0xbdafdba9	-0.08586819
3	0xbe7e3264	-0.2482391
4	0xbdc4c0fe	-0.09607123
5	0x3d10b55c	0.035329208
6	0xbd08044c	-0.033207223
7	0x3d9266e3	0.0714853
8	0xbd67436e	-0.05646079
9	0x3d4a3f32	0.049376674
10	0xbe328fcf	-0.17437671
11	0xbe107123	-0.14105658
12	0xbe425dba	-0.18981066
13	0xbd52e04c	-0.051483437
14	0xbd85b462	-0.06528546
15	0x3dd92712	0.10603155
16	0x3d949d55	0.07256571
17	0x3db894cc	0.09012756
18	0x3e068b2f	0.13139032
19	0x3e218bfc	0.15776056
20	0x3d1e00db	0.038575035
21	0xbdf2e108	-0.118593276
22	0xbe0023c9	-0.12513651
23	0x3de6752f	0.1125282
24	0xbde26c91	-0.11055864
25	0xbdc76315	-0.09735695
26	0x3e15b54f	0.14619945
27	0x3cb3506f	0.02188894
28	0xbd8a2b80	-0.06746578
29	0xbc114034	-0.008865405
30	0x3e00fcd2	0.12596443
31	0xbd308248	-0.043092996

decoder.dec_layers.0.MultiHAttention1.FCLayer.weight f4 [32, 32]
0	0x3cb0aae6	0.021565866
1	0x3e034e8e	0.12822935
2	0x3dc3a4e5	0.095529355
3	0xbb528ff7	-0.0032129267
4	0xbdc245bb	-0.09485956
5	0x3d85a3d9	0.06525392
6	0xbdef05c9	-0.11671025
7	0xbe109c6c	-0.1412217
8	0xbd4de660	-0.05026853
9	0xbd93c95b	-0.0721614
10	0x3d7fa011	0.06240851
11	0x3c938b2e	0.018010702
12	0x3d93e104	0.07220653
13	0xbe1263b4	-0.14295846
14	0xbd004b8f	-0.03132206
15	0x3bcf2498	0.006321501
16	0x3e156b65	0.14591749
17	0xbd2b13f6	-0.041767083
18	0xbce7d5e0	-0.028300226
19	0xbd04a57a	-0.032384373
20	0xbda467ce	-0.08027612
21	0x3d16b17b	0.036790352
22	0x3dfa3309	0.122167654
23	0x3df0e61f	0.11762642
24	0xbe239336	-0.15974125
25	0xbd98ecc8	-0.074670374
26	0x3d01b821	0.03166974
27	0x3dc8f75d	0.09812806
28	0xbd735b90	-0.059413493
29	0xbde1be98	-0.11022681
30	0x3e33b1b8	0.17548263
31	0xbdd7f8bd	-0.1054549
32	0xbde4dfb0	-0.111754775
33	0x3e02a9cc	0.12760085
34	0x3e1386b0	0.14406848
35	0xbd7c55d8	-0.061605304
36	0xbe3aff3e	-0.1826143
37	0xbd3c22d7	-0.045931663
38	0xbdd336e2	-0.103132024
39	0xbdea23d1	-0.11432613
40	0x3e046f30	0.1293304
41	0x3e397b6d	0.1811349
42	0x3e2b3ad5	0.16721661
43	0x3c1744dc	0.009232726
44	0x3d2c1cde	0.042019717
45	0xbdf60741	-0.12013102
46	0xbe0be730	-0.1366241
47	0x3dbcc689	0.09217555
48	0xbda69ba3	-0.08135154
49	0x3ddfb754	0.10923639
50	0x3e1065e0	0.14101362
51	0xbe130492	-0.14357212
52	0xbe377d78	-0.17918956
53	0x3dd0a482	0.101876274
54	0xbe34de4d	-0.17662926
55	0xbe07e350	-0.13270307
56	0x3b97e8e8	0.004635919
57	0xbd2b7c9b	-0.04186688
58	0xbd84adbc	-0.0647845
59	0xbd61ac37	-0.055095877
60	0x3dcdc748	0.100477755
61	0x3c37137b	0.011174078
62	0xbdf5e6d6	-0.12006919
63	0x3d7e66be	0.0621097
64	0xbe0720c1	-0.13196088
65	0xbc27aca1	-0.010234029
66	0xbe03f68e	-0.12887022
67	0x3df0ef56	0.117644
68	0xbdf1f62f	-0.11814534
69	0x3b5e6186	0.003393264
70	0xbdf40c52	-0.119164124
71	0xbd83fbfb	-0.06444546
72	0xbdb38836	-0.087662145
73	0xbd815c8c	-0.0631648
74	0x3d71eb9c	0.059062585
75	0x3e0ed5e5	0.13948782
76	0x3de7de00	0.1132164
77	0xbcfc17b3	-0.03077302
78	0x3d6c4858	0.05768618
79	0x3dc3d020	0.09561181
80	0x3e1bdfbf	0.15222071
81	0x3e2d7632	0.16939619
82	0xbd4671fc	-0.048448548
83	0xbd27a8f0	-0.040932596
84	0x3cc126ad	0.023578012
85	0xbb5e6d90	-0.0033939816
86	0xbd84b0f4	-0.06479064
87	0xbd8c6891	-0.06855882
88	0x3dfbd1e4	0.12295893
89	0xbd11295e	-0.03543984
90	0xbe24edf2	-0.16106394
91	0x3d8cc0de	0.06872724
92	0x3e3392f7	0.17536531
93	0xbd90372c	-0.07041773
94	0x3da6d8d2	0.08146824
95	0xbdadfeb5	-0.08495847
96	0xbd984e48	-0.07436806
97	0x3d8eca82	0.06972219
98	0x3cfdc745	0.030978808
99	0xbe237fcc	-0.1596672
100	0xbd1bf74a	-0.03807763
101	0xbe137d3f	-0.14403246
102	0x3e371e77	0.17882715
103	0x3da808f9	0.082048364
104	0xba9f6f12	-0.0012163839
105	0xbde6f172	-0.11276521
106	0xbdb395bd	-0.08768795
107	0xbda355e4	-0.07975367
108	0x3c3c3e7f	0.01148951
109	0x3ca13c41	0.019682052
110	0x3d3a30cd	0.045456696
111	0xbe430c37	-0.19047628
112	0xbe3a8526	-0.18214855
113	0xbe25b557	-0.16182457
114	0x3c2707c7	0.010194725
115	0xbdf866f6	-0.12129013
116	0x3e05afcd	0.13055344
117	0x3d6ec491	0.05829293
118	0xbd9bb57f	-0.07602977
119	0xbe2e9a9b	-0.17051165
120	0xbe37d63b	-0.17952816
121	0xbdd01d76	-0.10161869
122	0x3cece24f	0.028916506
123	0xbb4ccdda	-0.0031250627
124	0x3e0bb792	0.13644245
125	0xbaadea2c	-0.0013268641
126	0xbc024f3e	-0.007953463
127	0x3b90a287	0.004413906
128	0x3ded9208	0.11600119
129	0xbd765a27	-0.06014457
130	0x3d81198c	0.06303701
131	0x3c7a1309	0.015263327
132	0xbb937a99	-0.0045006988
133	0xbca61119	-0.020271825
134	0xbce0a2d4	-0.027421393
135	0xbe391092	-0.18072727
136	0x3e34c951	0.17654921
137	0xbd646671	-0.05576176
138	0x3e01cf26	0.12676677
139	0xbc93f12a	-0.018059332
140	0xbdc71ebb	-0.09722658
141	0xbd51082e	-0.05103319
142	0x3b02a8a0	0.0019936934
143	0xbda73687	-0.08164697
144	0xbd96c323	-0.07361438
145	0xbe3ea831	-0.18618847
146	0xbd5f7cb3	-0.05456228
147	0xbcebc0c4	-0.028778441
148	0xbb424067	-0.0029640438
149	0x3dd3582d	0.103195526
150	0xbe0bbb75	-0.13645728
151	0x3cf518d5	0.029919067
152	0xbe1c79d7	-0.15280853
153	0x3d40a736	0.047034465
154	0x3dc9d46f	0.098549716
155	0x3c319bdc	0.010840382
156	0xbde06506	-0.10956769
157	0x3df93053	0.1216742
158	0xbd7c527b	-0.061602097
159	0xbdde9258	-0.108677566
160	0x3d756760	0.05991304
161	0xbd9c6c22	-0.07637812
162	0x3c8f05f8	0.0174589
163	0x3cb546c0	0.022128463
164	0x3e18adea	0.14910093
165	0xbd36c792	-0.04462392
166	0x3e30a20b	0.17249314
167	0xbe05b206	-0.13056192
168	0x3da0cfba	0.07852121
169	0x3d663cae	0.056210212
170	0xbe06ca25	-0.1316305
171	0x3c3813f2	0.011235224
172	0xbe2bb175	-0.16766913
173	0xba976447	-0.0011550271
174	0x3e0fb79b	0.14034884
175	0xba84bd71	-0.0010127259
176	0x3df7701a	0.120819286
177	0xbd789d6f	-0.060697015
178	0xbdc6f1d8	-0.09714097
179	0xbd47c76d	-0.04877417
180	0x3e2561e1	0.16150619
181	0xbdd12b72	-0.10213365
182	0xbd3837aa	-0.04497496
183	0x3d34d926	0.0441524
184	0xbd2b2d95	-0.041791517
185	0x3cc41949	0.023937838
186	0xbe227a40	-0.15866947
187	0xbe09b03b	-0.13446133
188	0xbd4596e9	-0.048239622
189	0xbe10cbda	-0.14140263
190	0x3e000eb0	0.12505603
191	0xbe345894	-0.17611915
192	0xbc222898	-0.009897374
193	0x3d09b0d6	0.03361591
194	0xbd00ee64	-0.031477347
195	0xbcfa6aab	-0.030568441
196	0x3e251018	0.1611942
197	0xbdb55482	-0.08854009
198	0x3e43eafb	0.19132607
199	0xbdf3df36	-0.119078085
200	0xbced9420	-0.029001296
201	0xbe375b2c	-0.17905873
202	0x3c77d795	0.015127082
203	0x3e177601	0.14791109
204	0xbdc02134	-0.09381333
205	0xbdec5939	-0.11540455
206	0xbda61216	-0.08108918
207	0xbe270540	-0.16310596
208	0x3e3c343e	0.18379304
209	0x3d3fa96a	0.046792425
210	0xbe31ba24	-0.17356163
211	0xbe10e954	-0.14151508
212	0xbd397576	-0.045278035
213	0x3e109a87	0.14121448
214	0xbe29a74b	-0.16567723
215	0xbd49ed01	-0.04929829
216	0xbd762baa	-0.060100235
217	0x3c499645	0.012303893
218	0x3e39c9ef	0.18143438
219	0x3e18bfa5	0.14916857
220	0x3aa4cdbe	0.0012573523
221	0x3b933de4	0.004493462
222	0xbd9c372f	-0.07627713
223	0xbe21ec9e	-0.15812919
224	0xbda940bd	-0.08264301
225	0x3ce83204	0.028344162
226	0xbe1d568d	-0.15365048
227	0x3cdfee47	0.0273353
228	0xbe032d3e	-0.12810227
229	0xbe3dcc8e	-0.18535063
230	0x3d82be30	0.06383932
231	0x3dd025b4	0.10163441
232	0x3d5c2d27	0.053753998
233	0x3dbb08af	0.09132516
234	0x3d621522	0.055195935
235	0xbe1f02af	-0.15528367
236	0xbd914bcc	-0.07094535
237	0x3bc53a20	0.006018892
238	0x3e084ee5	0.13311346
239	0xbe3c07c1	-0.18362333
240	0xbd4922c7	-0.049105432
241	0xbdbe6b24	-0.09297779
242	0x3e1c40d3	0.15259103
243	0x3e1a4119	0.15063895
244	0xbd73913f	-0.05946469
245	0xbc7ae677	-0.015313736
246	0x3e42cbf8	0.1902312
247	0x3dc1bbae	0.09459625
248	0x3d98db2d	0.074636795
249	0x3e3fbdd8	0.18724763
250	0x3e186b22	0.14884618
251	0x3e6147a6	0.21999988
252	0x3d3dcdcb	0.046338838
253	0xbdb2ca99	-0.08730049
254	0x3d4087d3	0.047004532
255	0x3bafaf50	0.005361475

decoder.dec_layers.0.MultiHAttention1.FCLayer.bias f4 [32]
0	0xbdd2dfb8	-0.10296577
1	0x3dca955e	0.09891771
2	0x3e00cfd5	0.12579282
3	0x3e1f8bee	0.15580723
4	0x3df6dcb7	0.12053817
5	0xbe0539fa	-0.13010398
6	0x3df2e825	0.11860684
7	0xbe07dd73	-0.1326807
8	0x3e025a71	0.12729813
9	0xbe1eb302	-0.15497974
10	0xbe206506	-0.15663537
11	0x3c0be904	0.008539442
12	0xbdab40c5	-0.08361963
13	0x3db24922	0.08705355
14	0x3df011c8	0.117221415
15	0x3e086cd6	0.13322768
16	0xbcbf2f52	-0.023337994
17	0xbd7b6e94	-0.061384752
18	0x3cc3a934	0.023884393
19	0xbdedd538	-0.11612934
20	0x3ce2fc8e	0.027708318
21	0xbd1f0852	-0.038826294
22	0x3c83af07	0.01607467
23	0xbcd99c7d	-0.026563877
24	0xbd13c4fe	-0.03607654
25	0x3d677a85	0.056513328
26	0x3d83886f	0.06422507
27	0xbe242d2e	-0.1603286
28	0x3dfa9901	0.122362144
29	0xbe2ec61f	-0.17067765
30	0xbdcb2ff2	-0.09921254
31	0x3dceafb2	0.10092105
